results/MCMC/old/MCMC_samples_dict_0.pth (torch, 483000 bytes, 4 tensors)

group_beta_sigma f8 [3000]
0	0x3fc636a8f88b89e8	0.1735430921172132
1	0x3fb93ae238962b0b	0.09855474359043741
2	0x3fb8d3f74f08c0fe	0.09698434524102947
3	0x3fb73ae9fc1030d7	0.0907427063359053
4	0x3fad878dd4bbad93	0.05767482015456973
5	0x3fc6c4118af23626	0.1778585365722602
6	0x3fcf0a2be85913f5	0.2424979099761512
7	0x3fccba0f93370d49	0.2244281262229413
8	0x3fe479262b5a08be	0.6397887083733378
9	0x3fd6464bd0955c93	0.34804053658940254
10	0x3fe907797da3e16c	0.7821624235066742
11	0x3fd5117adf87d2fa	0.3291918929019598
12	0x3ff01efcf0227bba	1.0075654392492042
13	0x3fd4d25bf5095ea9	0.32533930711131603
14	0x3fd42de08b79ce81	0.31530011768993665
15	0x3fe3f797b98f7682	0.6239737152315714
16	0x3fbb7a6fb71719d6	0.10733698101021302
17	0x3fc5ee80f868a5f2	0.17134105805716576
18	0x3fbfd2a934bb4ea9	0.12430818116564048
19	0x3fccafcfca348abc	0.22411534665396526
20	0x3fc00ee4198edbff	0.12545443771315942
21	0x3fe00442d84f1efa	0.5005201554094747
22	0x3fc5e060734583ce	0.1709099352692917
23	0x3fc61bd1f0129fbd	0.17272400114347689
24	0x3fd0bc43bd6c4179	0.26149075983359854
25	0x3fb87f6667b01e93	0.09569397002644058
26	0x3fd675661dd6a165	0.35091545976549404
27	0x3fcbf136de039f94	0.21829877701315736
28	0x3fd94ea874c3963f	0.3954259052537487
29	0x3fbf9af5baf1ef03	0.12345825018013205
30	0x3fcafa1a13b00523	0.2107575031405214
31	0x3fb34f5220eb12d5	0.07542908958118784
32	0x3f9dd61613287b34	0.029136986655539945
33	0x3fc2f39459e0e793	0.14805845631218215
34	0x3fe30bade96acc78	0.5951757010392518
35	0x3fcb2f68270a9205	0.2123842421180059
36	0x3fbdd4dd786fd771	0.11652931394914191
37	0x3fe19aa499f23400	0.5501273161659128
38	0x3fc10241933a2d91	0.1328813523181052
39	0x3faaab4af864bb67	0.05208811075350788
40	0x3fb9808d949e9463	0.09961781385807593
41	0x3fa1db0ff392ba6b	0.03487443779282703
42	0x3feb0d4f61ce0c58	0.8453747663737756
43	0x3fc6de653138dd40	0.1786619654028332
44	0x3fa165a38c4d23a2	0.03397856795942934
45	0x3fd10fb92e123c28	0.2665846776880607
46	0x3fe706b294dc3c05	0.7195675761630588
47	0x3fb525e698846a11	0.0826095697742988
48	0x3fbede7e6e76fd33	0.12058248707670742
49	0x3ff583f304a2e0e3	1.3447141820052415
50	0x3ff6899926f63240	1.408593322939069
51	0x3ff38865ef46fe46	1.2208003374834262
52	0x3fc73906735910fc	0.18142777092192108
53	0x3fd3e280887809d6	0.3106995899871924
54	0x3fd984f9377f63e1	0.39874105853738057
55	0x3fd4f5fd110817b0	0.3275139490436869
56	0x3fbfac5eb7b53a60	0.1237239073281926
57	0x3fc1ea5a495729ee	0.13996437626913355
58	0x3fc1aba495aec1ac	0.13805062588427341
59	0x3fa0a5d666ae86b9	0.0325152397483754
60	0x3fdc4e1fef99b05c	0.44226835630866446
61	0x3fc5608f9c8daf84	0.1670093073292912
62	0x3fcda92b30497868	0.23172511918795924
63	0x3fb6dddce461422d	0.08932285857850593
64	0x3faf80b262695ac6	0.06152875376999627
65	0x3faf80b262695ac6	0.06152875376999627
66	0x3faf43283462ea23	0.061059242625067144
67	0x3fb4f0a0c3e2153b	0.0817966917257608
68	0x3fbb91851c7f86bf	0.10768920846706019
69	0x3fc3db7d5d08bcdc	0.1551357940929624
70	0x3fac628ae9da653c	0.05543932060863674
71	0x3f93935e31b7f356	0.01911685160119999
72	0x3fc5e3f986399725	0.171019735850842
73	0x3fc07ee58f16592b	0.12887258040127256
74	0x3fd6ed58e968b6bc	0.35823653024531743
75	0x3fc7cb52118fda0e	0.1858923516990249
76	0x3fe40429a3a26d7f	0.6255081363664629
77	0x3fd1fd3cb2b7dd7c	0.281081366090312
78	0x3fa313de97c8fd2c	0.03726096728177661
79	0x3fa3659d63db21bd	0.03788463443703758
80	0x3fc927314196c9bc	0.19650855734432848
81	0x3fce1a5dcfc4741a	0.23517964024441157
82	0x3fccd536e31077f0	0.225256787177329
83	0x3fe6cb42a2a116d6	0.7123120476105338
84	0x3fd12bc78f47e85c	0.2682970904567179
85	0x3fd2e5bc36f208bf	0.2952719246460553
86	0x3fc3ef0feb8b95bc	0.15573309899552423
87	0x3fccc2a5f786ccbe	0.2246901949525632
88	0x3fb6eecab90ae6d8	0.08958117501870377
89	0x3fd4bd1b6314df51	0.3240421741097537
90	0x3fe1b73af88cce28	0.5536169867031662
91	0x3fda1fc8005e7420	0.40818977390319056
92	0x3fe3ff765a1a2a2e	0.6249343643006051
93	0x3fe68a87aae0f276	0.7044103944277385
94	0x3fee905dc4946d0c	0.9551228370141032
95	0x3fdde879592fbf47	0.46731408795948365
96	0x3fdcb70a65c92c6d	0.4486719125749861
97	0x3fc7eec379b0301c	0.18697398607071214
98	0x3fb35ae8981e8c1a	0.07560590471125331
99	0x3fcb7c91568d782c	0.21473900533868695
100	0x3fdc44d5a1098e33	0.4417013237600457
101	0x3fde2a0d1e62279b	0.4713166043007903
102	0x3fe7d6889054318b	0.7449381655620056
103	0x3fdc745464c50cb6	0.44460019913476445
104	0x3fb6cb9b6882228a	0.08904429723237164
105	0x3fbab8d466bd170a	0.10438277729289439
106	0x3fe24289406aca4e	0.5706220873019647
107	0x3fb5efa1217cedd7	0.0856877047307799
108	0x3fbd33dfb204f4bf	0.11407278152633447
109	0x3fa895eeb37e1e01	0.04801889363357859
110	0x3faefb08ffa5c910	0.06050899620722039
111	0x3fc8b760a4e9b64d	0.19309623768224285
112	0x3fc1876f2944e387	0.13694562449543587
113	0x3fd937020ffe0114	0.39398242532480876
114	0x3fd90994760b99ce	0.3912097122942243
115	0x3fc46aa31b39fe4f	0.1595043070737909
116	0x3fcc885c677c791a	0.22291140606916643
117	0x3fb76153b6f2f3ac	0.09132884232071942
118	0x3fafeef28439e206	0.0623698984535999
119	0x3faaea359fbf7327	0.052568126440496514
120	0x3fb1ae6163ddaf0e	0.06906708419927218
121	0x3fb74980fa40c8d4	0.09096532926267581
122	0x3fb09d5de59d5fa6	0.06490122657612449
123	0x3fb9f21dec6bd1f2	0.1013506605339172
124	0x3fc1e89f59def204	0.13991157425142842
125	0x3fb8a02619555ffb	0.0961936771249156
126	0x3fbed58476afcbcb	0.1204455175173244
127	0x3fc8e63c5864107c	0.1945262366863324
128	0x3fb56b4a846f1d1d	0.08366838200810318
129	0x3fb5e37cdeffd165	0.08550243801420761
130	0x3fb1be68c9e6cddb	0.06931166581380614
131	0x3fadd9cf99f5c2c4	0.05830239061731882
132	0x3fb32cd875ff9515	0.07490303879565759
133	0x3fb44eb77babb732	0.0793261219912125
134	0x3fb0f98e20b8a0f5	0.06630790995462006
135	0x3fd35f9685fbb5e6	0.30270922741223527
136	0x3fb0fcd649343f1c	0.06635798728188685
137	0x3fb36fa8fca2a22d	0.07592254798749627
138	0x3fc571e395608ba4	0.16753811639600003
139	0x3fcd549baf008f87	0.22914453549412547
140	0x3fc768987b0c5cc4	0.18287950523583707
141	0x3fd26d2b07385c9d	0.2879130907544523
142	0x3fc38f38acd29ffa	0.15280826986895574
143	0x3fd4f6b575fbb257	0.32755791208072566
144	0x3fd094404c9f2924	0.25904853327360144
145	0x3fac6ad6ced8efb5	0.055502617597510996
146	0x3faf0e0d6d08a2b3	0.06065408664682561
147	0x3fa38f6ec90028b8	0.038203680072983415
148	0x3fb43c486db85076	0.07904484442434687
149	0x3fb55ca0bdc089e4	0.08344463951701858
150	0x3fb6ab3aa2d58754	0.0885502479118519
151	0x3fa25f49b2f98a56	0.03588323888540816
152	0x3fd9d464ec5a21d2	0.4035885151029365
153	0x3fbea8b74c62f113	0.11976190199760976
154	0x3fc01170f83346c9	0.12553226584582536
155	0x3fb69731846e21e0	0.08824452860984122
156	0x3f9593868f89dab4	0.021070578108686802
157	0x3f9992286618ec75	0.0249716102900774
158	0x3fe14ac3419a3839	0.5403763085648797
159	0x3fd2f42b505eddd6	0.2961529049748298
160	0x3fcf4f63d7bd6353	0.24461029085321204
161	0x3fb12f8a13919eea	0.06713164308314004
162	0x3fb33b7f5f39a5e2	0.07512661051591565
163	0x3fd8dcf113962160	0.3884852114938635
164	0x3fd443d253a6ff88	0.3166395012776708
165	0x3fd2b897a39051c5	0.29251662228605496
166	0x3fe0aea9dbc8cdcc	0.5213212292350646
167	0x3fd5933659962dce	0.33711012600607837
168	0x3fd4f51da4116622	0.3274606802202432
169	0x3f967fb4557fa5bb	0.0219715287384241
170	0x3faf57e9cdc1ca37	0.0612176002186015
171	0x3fa3354089bff540	0.03751565629498055
172	0x3fad13e3d64cfb0a	0.05679237357116136
173	0x3fcd4dc6dae0bccc	0.2289360588779118
174	0x3f9f3edb84bd6097	0.030513219811240857
175	0x3f981620080bf46c	0.02352190064538144
176	0x3f9aebac0f71e1b2	0.026289642756155814
177	0x3fb76d4cde204ac8	0.09151153967858783
178	0x3fa81b61fe5b73ff	0.04708391408869516
179	0x3fb24d1871966833	0.07148888371594424
180	0x3fa685c7688cfab6	0.04398940230611485
181	0x3fcdee47b0ae6751	0.23383422972693294
182	0x3fc867d582ac42ac	0.19066876297485658
183	0x3fafeabcddcaaaf0	0.06233778197687012
184	0x3fe92b7c1619b59f	0.7865581924103714
185	0x3fd21b2531358952	0.28290681653574723
186	0x3fc527a131a611f2	0.1652719013619755
187	0x3fcd328512cde332	0.22810424249817057
188	0x3fd979dfb7bf6e09	0.39806359237783845
189	0x3fcff78daa67ad99	0.2497422296577099
190	0x3fc8a068af1008ea	0.19239529178600573
191	0x3fe36450d8248a94	0.6059955808198816
192	0x3fd99a4cc017dd6e	0.40004271277526626
193	0x3fd4b4ce87af14d0	0.32353556871778455
194	0x3fd85adbf777e41c	0.3805456082041603
195	0x3fcbe6e79d30115d	0.2179841535108932
196	0x3fea364046f1cc0c	0.8191224465975906
197	0x3fe0d5f1a4125688	0.526116199924858
198	0x3fe7708c82012406	0.7324888743543176
199	0x3ff413580bbe8e08	1.2547226389659745
200	0x3fc8c5c4e8857623	0.1935354361875606
201	0x3fd24632ff5ca250	0.28553461969071225
202	0x3fe2085fe43548e6	0.563522287100821
203	0x3fd85b4722e03d10	0.38057115941860875
204	0x3fde40e950228f88	0.4727118761604676
205	0x3febb68a59f556a3	0.8660327679633223
206	0x3fdf73cf30db3926	0.4914434411156371
207	0x3ff6a6e18206c89b	1.4157424048576448
208	0x3fcf1f92bc8d660c	0.24315103727967402
209	0x3ff8c0d32562f57e	1.547076364556545
210	0x3fe8c7c9184a71a5	0.7743878817014332
211	0x3fe7c49cf157bcba	0.7427506173825329
212	0x3fe45b388c557096	0.6361353627103365
213	0x3fef3deccc82a750	0.9763092035620762
214	0x3fdaefcb137b4abe	0.4208858194589701
215	0x3fbc69d4ce5c3c2a	0.11098985708325473
216	0x3fcb79fd82c74860	0.21466034780184184
217	0x3fcdb739790ad1a3	0.2321540680910746
218	0x3fa3f7ad54a9a08f	0.038999001107016366
219	0x3fa5e6ed26ab5ace	0.04277745339429871
220	0x3fcd04642ac556ad	0.22669651115818593
221	0x3fc6b46cf9fefa7a	0.17738115507923508
222	0x3fda0b21f11f0cc1	0.4069294790935594
223	0x3fae4ee7992d887f	0.059195744942159394
224	0x3fb935d87858f784	0.09847786844417611
225	0x3fad2e8a83820b4f	0.056995705178471405
226	0x3fd239610ed6eb7b	0.28475214432881274
227	0x3fd63b0bfc64c4b3	0.34735393188300207
228	0x3fe123ab73e7f6bb	0.5356042159835036
229	0x3fd305ecb10a1680	0.2972366074467132
230	0x3fc56c55da81708c	0.16736863297672178
231	0x3fa6741f68827ec4	0.043854695804154825
232	0x3fcb963584a211d3	0.21552151657318905
233	0x3fc7fb23a6ae7f53	0.18735166205169182
234	0x3fd3fd94b51ac75b	0.3123523491477635
235	0x3fb81e269b5b65f5	0.09421006482025247
236	0x3fbec70e11fd2cf1	0.12022483767684712
237	0x3f99d0470e4aff34	0.025208578345654334
238	0x3f8a7c120f63b98f	0.012931958288814353
239	0x3fc9cec6138ad800	0.20162273363320082
240	0x3fbdc9eac7468dd0	0.11636226048590648
241	0x3fca0ba5b21fa58b	0.20348044583742494
242	0x3fd2a740bf01c6f7	0.2914583077718897
243	0x3fc930b2727df5af	0.19679861631804615
244	0x3fc866c622f538f6	0.19063641268662196
245	0x3fa486f16ec78656	0.04009203412330169
246	0x3fb7bdaecdbe2a86	0.09273808024424043
247	0x3fbcee26dc2dd3ca	0.11300890803779776
248	0x3fd3ea174f45ac3d	0.3111627840177709
249	0x3fc92284f72ab3a4	0.19636594837848265
250	0x3fd9c1ff3ba11782	0.40246563742800145
251	0x3fc0613ab119750b	0.12796720168527317
252	0x3fade98af103a1dd	0.05842241470401508
253	0x3fb701e1efe58ef5	0.08987247568944297
254	0x3fcab275a92902ca	0.20857115516448338
255	0x3fc3e4d515efaaa0	0.15542090960601218

group_log_sigma_es_sigma f8 [3000]
0	0x3fe1ab0d3175fa88	0.5521303144485765
1	0x3fdcc125ab30f61d	0.4492887660779575
2	0x3fdb7e8c377cea03	0.4295988599657507
3	0x3fcd9f97404d5604	0.23143282546759292
4	0x3fc16ce9670e9ca2	0.13613622219165672
5	0x3fda0315dd418827	0.4064383183196036
6	0x3fdbdba997e2b57d	0.43528213341308924
7	0x3fd15dc8df5e465b	0.27134916127497427
8	0x3fcfefa4ef79be91	0.24950086300986077
9	0x3fc8b97dcea06b4d	0.19316074933234476
10	0x3fd2ecd11d3c4ce4	0.2957041535857583
11	0x3fd9168ccf7716a8	0.3920013452555886
12	0x3fd7bd26c146628c	0.3709198844385717
13	0x3fc4b54ab6efa926	0.1617825883143464
14	0x3fe68485c642bdb7	0.7036770698813858
15	0x3fcf670b6c21aba4	0.24533217220172532
16	0x3fd87ca133cd46b2	0.38260679301047695
17	0x3fb8b391e024ff43	0.09649001810339279
18	0x3fbbe50a5c3d46bf	0.10896363021790999
19	0x3fc61d424fb66a9a	0.17276791469779057
20	0x3fbd7f82c233900f	0.1152269100307992
21	0x3f97da9775093684	0.02329479839163763
22	0x3fc7baa1ca65a26b	0.1853830564753197
23	0x3fc85b5f0a82fbc5	0.19028842938675275
24	0x3fb58692b442f514	0.08408467198292541
25	0x3fb9bbdd79d45514	0.10052284454680588
26	0x3fc58976faead3ba	0.16825759174176175
27	0x3fe176d3ba4761d5	0.5457552564867522
28	0x3fc1872833e66a96	0.13693716558630759
29	0x3fed432fb68ae65f	0.9144514622959824
30	0x3fd46cae177fe421	0.3191333035934481
31	0x3fbe3b3e266b6726	0.11809147298791042
32	0x3fc7d69c7cce92ae	0.1862369164856736
33	0x3fb37feb3cb96c96	0.07617063744094063
34	0x3f9f61722d6b86e2	0.030645164510935248
35	0x3fb034765b36d001	0.06330051161677376
36	0x3fc581f790aed536	0.16802877964588853
37	0x3fc04f5dc8c9bb74	0.1274220686350095
38	0x3fb8047cb880997b	0.09381846909000117
39	0x3fd5585078accf35	0.333515279623714
40	0x3fd050f9acdb7541	0.25494233971206276
41	0x3fb954611baa2180	0.0989437763729537
42	0x3fa0c27173d3fca5	0.0327334836856548
43	0x3fd6694dcce97cd5	0.3501772404760691
44	0x3fe6bb7027e77527	0.7103806285264554
45	0x3fd79c80de7e4136	0.3689272091660486
46	0x3fbda0cd5a903aea	0.11573489628811343
47	0x3fd337a88b6ed14b	0.30027211777202883
48	0x3fd1b34c9510836c	0.2765685516079006
49	0x3fdc77ec423b3e49	0.44481951206123377
50	0x3fd28026b9410cf9	0.28907173243733514
51	0x3fcef9cc561f4386	0.24199823575193252
52	0x3fd329fc37eb7165	0.29943757496746165
53	0x3feb4bbc7371fff7	0.8529951338568925
54	0x3fe5432129230fb5	0.6644445231872768
55	0x3fe937186b87c822	0.7879755115702702
56	0x3fed59a232d74c96	0.917191600130894
57	0x3ff64dd1ddb3bb72	1.3939989719617327
58	0x3fe1fe85097724b8	0.5623192963477299
59	0x3fd9d48dfce53864	0.40359830567184063
60	0x3fc66e8d08e8ff00	0.17524874625268438
61	0x3fd7f8ec7f3e0ca4	0.37456810403836927
62	0x3fea1b71cf8edff7	0.8158501676434743
63	0x3fd9aff6d553fb1d	0.40136500199143815
64	0x3fda17d636a2e249	0.40770488105366504
65	0x3fda17d636a2e249	0.40770488105366504
66	0x3fda6ec6bd229d7f	0.41301125021205815
67	0x3fce225088cf103f	0.23542219810599538
68	0x3fdef7f6dd988a84	0.4838845409414392
69	0x3fe96a7a0e54d085	0.7942476539524398
70	0x3fdb844c0f12a9fb	0.4299497744747495
71	0x3fecb1364e8c741e	0.8966323408272989
72	0x3fe5ff3aa4403c84	0.6874058921838615
73	0x3fe43b3924803eca	0.6322293961438501
74	0x3ffbc29824fbbbe2	1.7350083775197551
75	0x3feae63eb1fd7f6e	0.840606067311439
76	0x3fce6a5eddf0a32c	0.23762117230332913
77	0x3feb9cee8b059555	0.8629067149419521
78	0x3fd5ea1656d7448b	0.34241255264812115
79	0x3fd4203db396bcfd	0.31446783578844856
80	0x3fd6ca989bc36365	0.35611548625234085
81	0x3fdbc3ac41fbfd0c	0.4338179249170515
82	0x3ffbf6bf55db7a5a	1.7477410653879333
83	0x3fd22d52e78cadf7	0.2840163480020403
84	0x3fdcbfe819c3386d	0.44921305194737365
85	0x3fe09a78a553437e	0.5188563565262567
86	0x3fd4bbd18e9f7cc2	0.32396353652979937
87	0x3fe980cf72abfe52	0.796973918884712
88	0x3fd8aba3dd26f697	0.38547607991118
89	0x3f9fce85fb86afe9	0.031061261631904733
90	0x3fc957f1d8f67c57	0.19799635976684968
91	0x3fcd50291d52dfe6	0.22900880748579694
92	0x3ff1977c02b46521	1.0994835000659082
93	0x3fdf49c2e5ad8c73	0.4888770335148315
94	0x3fe2a21f12da2695	0.5822902076917723
95	0x3fda6f70fbee2a83	0.4130518398530187
96	0x3fb5283a4a8d3a2c	0.08264507598981002
97	0x3fe5db7fe9a9bb24	0.6830443919878673
98	0x3fb99b9c8ff5ec19	0.10003069414771949
99	0x3fce201b3893416c	0.23535480749570625
100	0x3fd0a4c9351ddc71	0.2600577372281299
101	0x3fb5a785868b525e	0.08458742651721127
102	0x3fd4f606f90f970a	0.32751631090501176
103	0x3fda8bc81b64f10b	0.41478159594750313
104	0x3fce28467d53f7e6	0.235604106135667
105	0x3fd64cdd1e49e1d7	0.3484413905894405
106	0x3fc45a72920b2e98	0.1590102398971467
107	0x3fdce3a7b4fbb6f3	0.45139496492525594
108	0x3fe7428c8b03f87d	0.7268736567637145
109	0x3fcf3ed32f064d7d	0.24410476490139024
110	0x3fc48deb89cdb91f	0.160581056868474
111	0x3fc2325ed8650dc6	0.14216218534612163
112	0x3facffb4a986b355	0.05663837975894263
113	0x3fcc556f1fbe445a	0.2213572411533587
114	0x3fd1d9308d03c40e	0.27888120432822994
115	0x3fd5189e671ae281	0.3296276099095295
116	0x3fe61582bf0b5d64	0.6901258212409798
117	0x3fe2a946bab1f8c3	0.5831636091604867
118	0x3fdb7a32433c4703	0.42933327260935544
119	0x3fe4076d19617244	0.6259065147128884
120	0x3fbf6b8424f3a218	0.12273431684628411
121	0x3fa00fa131964f53	0.03136924486457695
122	0x3fd01575212aa733	0.251309664143821
123	0x3fd3a594aea43c18	0.3069812493785675
124	0x3fb19dc19170f7a8	0.06881341744244074
125	0x3fb7901611365c41	0.09204233093474647
126	0x3fbf3331cb73b013	0.12187491623961959
127	0x3fd668c80e2089e7	0.3501453531227114
128	0x3fd9b2e6d399b866	0.4015442911539878
129	0x3fd28ef9ad006e22	0.2899765195340668
130	0x3fe07bac347bd6b5	0.5150967621873038
131	0x3fdddbe0a82201f2	0.4665452615663802
132	0x3fd67aae3524f8ad	0.35123782338986126
133	0x3fe228d89b2b2a43	0.5674860983502373
134	0x3fe29496fc7e21c2	0.5806384021280382
135	0x3fe1152a7bbe8553	0.5338337342147191
136	0x3ff1185cd49b3b63	1.0684479050575753
137	0x3fe6b0efc0e1cce2	0.7090986983515928
138	0x3fdd74eb717a1500	0.46026121217467164
139	0x3fd75425c1224654	0.36451095448237436
140	0x3fe0a23f1cfe064b	0.5198054853683031
141	0x3fdc1e52d3b1062e	0.43935080216405964
142	0x3fd5a5192f3f1a71	0.33820180524745697
143	0x3fd1797076614cd6	0.27303706703714903
144	0x3fc1718a2d409a1e	0.13627745828235133
145	0x3fc475072ba9b962	0.15982141143781364
146	0x3fc0a5463b935c74	0.13004377278295787
147	0x3fd72574ec86489d	0.36166117761707445
148	0x3fd966f324b5f831	0.39690855584183554
149	0x3ff04f7cbe3b5d21	1.0194060736592478
150	0x3fee6d65bd4fc7c1	0.9508541772358897
151	0x3feaeb5208e18b05	0.8412256406266755
152	0x3fc88ad711b6a081	0.19173706402694182
153	0x3fc81082655e2fc6	0.18800382566075607
154	0x3fd007727eeb23ea	0.25045454401384737
155	0x3fccd3be5497879a	0.2252118981405687
156	0x3fc8745b7b01bc73	0.19105094438734546
157	0x3fc87a695f2e0037	0.19123570582815017
158	0x3fcb88cb066b751f	0.2151120931002106
159	0x3feebb115b59b1ff	0.9603354248225172
160	0x3fdd539ba2d3a344	0.4582280244927015
161	0x3fd5ad9582980c18	0.3387197280246155
162	0x3fe2c14fedfcd8b2	0.5860976837345986
163	0x3fb4695384f5238c	0.07973215099367631
164	0x3fbc91d19c62bb03	0.11160001819619585
165	0x3fc0c93727d05e29	0.13114060825385934
166	0x3fbeacedfd181f99	0.11982619694765474
167	0x3fae145ba4644e29	0.058749069039688635
168	0x3fae9b4d81f8a96f	0.059778616061822436
169	0x3fb96b0190f29995	0.09928903378258831
170	0x3fc476609f177a08	0.1598625923933954
171	0x3fc14f68d30d32fe	0.1352358847165291
172	0x3fc1439e25aa02cd	0.13487603034083975
173	0x3fe025c7b75213c1	0.5046118336182347
174	0x3fc4483f12dff187	0.15845478459949566
175	0x3fc1a9f5cd91d526	0.1379992727048968
176	0x3fc201d42285a1aa	0.14068080602306782
177	0x3fda0783c82047a9	0.4067086653095609
178	0x3fd03fefb38375d5	0.25390236406914585
179	0x3fc95aee372d3495	0.19808747953576203
180	0x3fed68a359ec9bd1	0.91902320445376
181	0x3fa652db4283bdbd	0.04360089480348559
182	0x3faad364bec588a0	0.05239405468707159
183	0x3faf18802e819a57	0.060733800580057
184	0x3fa03ebfec98c799	0.031728742248005655
185	0x3fb39d3922455b49	0.07661778532688603
186	0x3fd244faac62c558	0.28546015581658457
187	0x3fd6d8fa22be94c9	0.35699323075307327
188	0x3fe7ab1248a51a0f	0.739632741818072
189	0x3fe10f30778395f8	0.5331041654832793
190	0x3fd6ba022a6c699a	0.35510305540960874
191	0x3fd261c5447fb77b	0.2872174424108988
192	0x3fec774fdd31c617	0.889564449329728
193	0x3fdb0ae0a8032bbc	0.4225389137979467
194	0x3fd0b93f1a25b4cf	0.261306548628295
195	0x3fcd287b2120545b	0.22779788129324427
196	0x3fe7949c17eb73d1	0.7368908374006599
197	0x3ffb45934dd17c3d	1.7044861831452771
198	0x3ff56ae1fd295f80	1.338594426071694
199	0x3ff9a5602d6e0641	1.6028749250985046
200	0x3fe7a32fd69ffe82	0.7386702720541083
201	0x3fe9a4aed82009a9	0.8013529034799848
202	0x3fec749e24ba3519	0.8892355649310587
203	0x3ff6cddfe8bf002c	1.4252623645443334
204	0x3ff73b3667c3170e	1.4519561818319207
205	0x3fcfdc93c41ffd1e	0.24891898228086345
206	0x3fe020482233741d	0.5039406459796997
207	0x3fd0c9c59c4a5224	0.26231518042303237
208	0x3fc26c65f878f305	0.14393305427974937
209	0x3fdcf45929e9d5e7	0.4524138364134544
210	0x3fe0e15d581e445e	0.5275103303012079
211	0x3fe10dc655f41786	0.5329314879206641
212	0x3fe3ddca2723e60f	0.620823933072815
213	0x3fd3aac159d9b764	0.3072970750280233
214	0x3fddb4977b5f0da4	0.46414744422892285
215	0x3fddc18baf11df45	0.46493808838521417
216	0x3fd81f2e59245d4a	0.37690314011839077
217	0x3fd9963f298498ea	0.3997953324745952
218	0x3faf7da05092dccb	0.06150532706799935
219	0x3fb37109a32f9b2e	0.07594356760055795
220	0x3fba709fb9b46448	0.10328100475125368
221	0x3fc8b254864f1a70	0.19294220502907278
222	0x3fe50688a3230115	0.6570475755943642
223	0x3fd04385508c1788	0.2541211401552279
224	0x3fc324ce0b0cd9e8	0.1495606950717978
225	0x3fdeae2d387f12ef	0.4793808986399161
226	0x3fd834c8dfbbf3ce	0.37822172020952116
227	0x3fd6258f13f447de	0.34604241322187856
228	0x3fd8afdf98de7c94	0.38573446205732265
229	0x3fd70773b6b3a432	0.3598298343845868
230	0x3fe5ece5f71842b0	0.6851682497090987
231	0x3fde17d46f5110d8	0.47020445700424096
232	0x3fe495a625a9003a	0.6432677016782755
233	0x3fdff6a86b2eb5ab	0.49942980258023323
234	0x3fe861ab35d0b526	0.7619224597052934
235	0x3fde6ef221118ecf	0.4755215952811626
236	0x3fdcf3b54196cea1	0.4523747578161679
237	0x3faae89aff08c1ef	0.052555888778787245
238	0x3fd6634a84709815	0.3498102467877982
239	0x3fd503a4f71d6720	0.32834743625936547
240	0x3fcc6affa75f3a28	0.22201533958873765
241	0x3feb31cdeb1c801b	0.8498296348589095
242	0x3fd55c71118b0e1f	0.33376719201280197
243	0x3fce459b6f41e78c	0.2364992421387878
244	0x3fef38b3d4579b0f	0.9756716868695053
245	0x3fe3c4810ef545a3	0.6177373211050291
246	0x3fd57ef895027336	0.335874696271094
247	0x3fb40b17dab7c5a2	0.07829426851073731
248	0x3fd9aa467cf587aa	0.40101778224026907
249	0x3fd14e27a8d09d02	0.2703951977332083
250	0x3fdaca7410f3f67e	0.4186067739063687
251	0x3fdab48ea1a13f68	0.4172703340927826
252	0x3fc9399becd3cbc8	0.1970705896743239
253	0x3fcd76c0a5651264	0.23018653942030476
254	0x3fdd3f07e9b02266	0.4569721014127367
255	0x3fe21761e3547da8	0.5653542938270464

group_log_sigma_u_sigma f8 [3000]
0	0x3fb69572f0cab2b8	0.08821791056352424
1	0x3fa2d21f8020e416	0.03675936163967479
2	0x3fa8a8544e4475c5	0.04815925078785769
3	0x3fb31730bcf701fe	0.0745726071682
4	0x3fb978ef5aeaaabd	0.09950157136578759
5	0x3fba868d9fc968f7	0.10361561919254202
6	0x3fbd32413219cc4e	0.11404807542003079
7	0x3fe3fde706bb9fe3	0.6247439509870641
8	0x3fda693c6a5db593	0.41267309558210136
9	0x3fdbf77cf70ef101	0.4369804775885911
10	0x3fb216f64e2040bd	0.07066287429211378
11	0x3fb1bb02a918a1c9	0.06925980213475848
12	0x3fc942ded64b5035	0.19735322440703987
13	0x3fdd6bbeeea2a872	0.4597012834952984
14	0x3fe19f6284b68e96	0.5507061569264404
15	0x3ff49929e60d5b00	1.287393473283089
16	0x3fce60c44a8c6274	0.23732808723504528
17	0x3fddf96894ef157f	0.468347688144
18	0x3fd71d0870bd5438	0.361147031876786
19	0x3fded66195bbc4c4	0.4818347894898347
20	0x3fcf75aea3ef8b88	0.24577887539552656
21	0x3fe19abf5c6f10df	0.5501400761936813
22	0x3fe2100d66a57b66	0.5644595150769021
23	0x3fe5853e49792bd5	0.6725150523210411
24	0x3fe8c91873c2f864	0.7745477925270845
25	0x3ff03ca238196cfd	1.0148031417255077
26	0x3fd7b6c91f4f62b2	0.3705313497317021
27	0x3ff980f8fc43218a	1.5939874509805088
28	0x3fde5dfb0121bdbe	0.47448611364867677
29	0x3fd7455045d82aef	0.3636055643152493
30	0x3fdd8f35c60fde77	0.46186584798804325
31	0x3fe568656514a68f	0.6689936613303916
32	0x3febb7be660d627d	0.8661796563347505
33	0x3ff1326609dfea5e	1.0748043428162855
34	0x3ff10b0c73904e73	1.0651974214751163
35	0x3fe8af4af3b15ad2	0.7713980445504041
36	0x3fe6461efd54880a	0.6960596988540158
37	0x3fd6c11817bf55bf	0.35553552931864013
38	0x3fe0ec8eb1516b2d	0.5288766349070549
39	0x3fd68d7d84abad59	0.35238588291277534
40	0x3fd11f5ef0ae6352	0.2675397253420232
41	0x3fd65629ef405181	0.3490090214193274
42	0x3ff1346d61deb830	1.0752996275946423
43	0x3fe133dc1d94a406	0.5375805452105176
44	0x3fe3fdad5dea59c9	0.624716456821994
45	0x3fd9cd6a0fd47d6a	0.40316249414350713
46	0x3fd7eb3373d39c33	0.3737305289382135
47	0x3fccfce312f904c5	0.22646749903109345
48	0x3fe610bd19e9c779	0.6895432954899966
49	0x3fd7dee6b18eca40	0.3729798063242562
50	0x3fd64a6d2d12cfc9	0.34829263116557435
51	0x3fcd966a070340f8	0.23115277616899
52	0x3fec2c6a4a076777	0.8804217763783829
53	0x3fd92cb00b51eae2	0.39335251908748436
54	0x3fc1ebec2d056858	0.14001228521630327
55	0x3fd05b11623d8d39	0.25555834382813064
56	0x3fcdd6fb41f96613	0.23312321397206456
57	0x3fd3150c19379f25	0.298159622789614
58	0x3fd66ee7bf08d91d	0.3505191197940734
59	0x3fc84bcc237706dc	0.1898131535690969
60	0x3ff588589f181fa8	1.3457876410120466
61	0x3fe3b113397c6f12	0.6153656122946549
62	0x3fe19002faefe9a4	0.548829546081198
63	0x3ff105603a91fd39	1.063812474050634
64	0x3febf197e5c71aa5	0.8732413757178007
65	0x3febf197e5c71aa5	0.8732413757178007
66	0x3fec3060932e693c	0.8809054255137094
67	0x3fe4bc9fe38bf91a	0.6480254596970412
68	0x3ff718d2809bda5d	1.443560125711563
69	0x3fe130e4f21244d2	0.5372185447651197
70	0x3fe47a4314d43f8e	0.6399245650118119
71	0x3fd2023059115319	0.28138359735503254
72	0x3fe6ec8eab3ac280	0.7163766235663189
73	0x3fe337b932463edb	0.6005521757051285
74	0x3fcfed2303acc121	0.24942434005198158
75	0x3fd58de747e0de72	0.33678609866499365
76	0x3fea56eaa254af48	0.8231099291346959
77	0x3fe44c52b636f48c	0.634316783798242
78	0x3fd9d044f472d4f1	0.4033367526238428
79	0x3fdd09787c3445b9	0.45370304230990716
80	0x3fd9c18e67d79de1	0.40243873730511664
81	0x3fc7955a1aba755e	0.184245360423044
82	0x3fe390119775f264	0.6113365133492832
83	0x3fc587db56bc39a2	0.16820852027053684
84	0x3fa1354b0ef85b84	0.03360971982708974
85	0x3fa72be1fbc46a43	0.045256673796946
86	0x3fba9c7af894de5c	0.10395020073780742
87	0x3fae1f2a409c78dc	0.058831520449744906
88	0x3fd18fd3301a6992	0.2744033784635117
89	0x3fd4862dca7d0d08	0.3206896283556522
90	0x3fe48ddaa6bd7c6a	0.6423161751407751
91	0x3fe21e36e07a9837	0.5661882767060494
92	0x3fcdd96cc2d2e9b5	0.23319777977833459
93	0x3fc7336e71c5bac9	0.18125706248561915
94	0x3fb2d4cf546b1ac5	0.07355972109790361
95	0x3fc198d68763ddeb	0.13747674570889443
96	0x3fda3815a4743d76	0.4096731286999423
97	0x3fecf63270b68519	0.905053348677174
98	0x3feb6ac16cd33b64	0.8567816853991244
99	0x3fd41b0ddb0d7333	0.31415125266885296
100	0x3fc86b7ef3d63ba5	0.19078051477523875
101	0x3fe98696a6418777	0.7976792571246126
102	0x3fe6db3801aed04e	0.7142601044529415
103	0x3fe415fb27b8cc87	0.627683236676959
104	0x3fd90a5b38ad308d	0.3912571004373227
105	0x3fd710ce5a666485	0.36040076091882894
106	0x3fd98f62ac4f2067	0.3993765528398456
107	0x3fe52615ba1875a7	0.6608990320852869
108	0x3ff1034c5955c467	1.0633052339219604
109	0x3fd3bce1102caddf	0.30840326861900097
110	0x3fde9f5721ee1663	0.4784753638599339
111	0x3fd4e119fcda2278	0.32623910610758555
112	0x3fd427ca034a1755	0.31492853471023824
113	0x3fdb1252f3943c9f	0.4229934099866543
114	0x3fd8d77c5d8434b0	0.38815220959151997
115	0x3fcee04d32928629	0.2412201401648855
116	0x3fdf60c75503b53d	0.49028189947314954
117	0x3fd6fb01109c3baa	0.35907007810686287
118	0x3fdfad1ea6a4b67b	0.49494138978739216
119	0x3ff0da85f1329173	1.0533503934649076
120	0x3fed5e34f0b27890	0.9177498532406094
121	0x3ff412565f484f79	1.2544769021960447
122	0x3fd87d4fdd6a3fc0	0.3826484358078197
123	0x3fd4cc1f8b0cad65	0.32495869235090985
124	0x3ff30db6804f393c	1.1908478748405988
125	0x3fe0a869498b5a08	0.5205580173886242
126	0x3fe0fec1143b1dad	0.5310979266295611
127	0x3fc56313232ba731	0.16708602158842603
128	0x3fd6edcc3e987433	0.3582640277180104
129	0x3fe4da4177e8750e	0.651642545886405
130	0x3fe6e50c7a0b0570	0.7154600509312967
131	0x3fe69396f3817feb	0.7055163150762359
132	0x3fe8fc0b98eaf9ef	0.7807672487904805
133	0x3ff69c6a1e8c408a	1.4131871407771848
134	0x3ffad6135674186d	1.677264535626388
135	0x3ff0e1bda126822d	1.0551124854029112
136	0x3fece7c865f6c1a5	0.90329379954169
137	0x3fe6e115c1ddba3b	0.7149761949966157
138	0x3fe2223d8f7e25a9	0.5666797449677478
139	0x3fe2cbc69229cf2b	0.5873749594452183
140	0x3fba2339f043bb07	0.10210001102289477
141	0x3fd8916bf254942e	0.3838758341319729
142	0x3fd0979bcaee78cf	0.25925345246822656
143	0x3ff41bae7dcfb3b4	1.2567582048898034
144	0x3ff23df6c9c2513f	1.1401279336178758
145	0x3fe176b41907a1d5	0.5457401741851365
146	0x3fe0e9c9768365ca	0.5285384478294699
147	0x3ff1b16683c0060b	1.1058106562126138
148	0x3fe7e4c9381fc9a1	0.7466779800582125
149	0x3fde5ed84f84c4bb	0.47453887715807824
150	0x3fe014095b4b7de8	0.5024458678344077
151	0x3fd1771898115383	0.2728940472637122
152	0x3fc35505d2e7c911	0.1510321883975583
153	0x3fd765adeededb85	0.3655810196609582
154	0x3fcb6ff4648397a7	0.2143540850440193
155	0x3fd0e5d87efcbf5e	0.2640286674604705
156	0x3fd588278a36a3b8	0.3364352082958777
157	0x3fd725c3ecb85a30	0.36168001286697216
158	0x3fd5e932684343ce	0.342358209437461
159	0x3ff1162cba3e4389	1.067913749229975
160	0x3fdb6af3fffb3911	0.42840290067842185
161	0x3fd1ae1ba6462f17	0.27625170934401083
162	0x3fd5579d1d2247ca	0.3334725174437351
163	0x3ff1d84d69b81f48	1.1153082017571752
164	0x3ff051f6f4198e91	1.0200109038495706
165	0x3fdbf61a17c1219d	0.43689586944358344
166	0x3fe1ae724a9edf38	0.5525447328027218
167	0x3fdc9eda7bbcbb15	0.44719564517701943
168	0x3fe574ca103cc994	0.6705065076005661
169	0x3fe17e16f1deb5a6	0.5466418003103868
170	0x3fd808547b5bc37f	0.37550842329715545
171	0x3fdf64e1b3c992f5	0.49053232724536083
172	0x3fd422e24d100e14	0.3146291496816229
173	0x3fdd946639f16937	0.4621825757837032
174	0x3fdf1315a3d7c71f	0.4855398273494859
175	0x3fe2729449e9db5f	0.576486725199043
176	0x3fe17e810e1a1140	0.5466923976351055
177	0x3ff03ddf60ef8a0a	1.0151056086111816
178	0x3fd77410ef1f072e	0.36645911552124033
179	0x3ff004660f1c75a5	1.0010738935737689
180	0x3ff31b8919e7a9bf	1.1942225467597465
181	0x3fe5e1108cfc23a4	0.6837237123119064
182	0x3fe9a602fa476403	0.8015150917300392
183	0x3ff212145a3892b2	1.129413940835701
184	0x3feb89f19a0e2fea	0.8605888375182051
185	0x3ff5145cd2e8ae32	1.3174713362340182
186	0x3fd64db7c9b18b26	0.34849352547296275
187	0x3fd82d8feaa39ab3	0.37778089441273294
188	0x3fcc54b436e7b663	0.22133495980181114
189	0x3fcb74eae02bc739	0.21450553842401535
190	0x3fcb5ae1bcb5736e	0.2137109919957782
191	0x3fcc6695bfb9b0ba	0.2218806444319677
192	0x3fb7c83e84431e62	0.09289923409516512
193	0x3fd3b79827cb2bbf	0.3080807102784852
194	0x3fcf1806015a5bfa	0.24292063776076117
195	0x3fd33fcc50b6f44c	0.3007689274052765
196	0x3fe5931713a5c6d2	0.6742053397885803
197	0x3fd3d6e9c12e25a8	0.3099922548795697
198	0x3fd39fedf5998031	0.3066363237794603
199	0x3fbcb5a9d92f9905	0.1121469645728191
200	0x3fdc32b8615d5f81	0.44059571750903365
201	0x3fb6d12ff8467a7c	0.08912944613846635
202	0x3fde92a0fbd78d60	0.477699514331297
203	0x3fe68feb70977717	0.7050683211379888
204	0x3fe47c3e4002ffa1	0.6401664018849155
205	0x3fe670da67837e2e	0.7012760183096753
206	0x3fe257e52e81cc5f	0.5732293995228125
207	0x3fdc2e737bf38eea	0.44033515076283314
208	0x3fe333ed4d84e7f1	0.6000887407346892
209	0x3fade98448eb72f8	0.05842221632130945
210	0x3fa8d37340ee5541	0.04848823707213024
211	0x3fe3f8021ba10e2d	0.6240244426375675
212	0x3ffa88492dc80b93	1.658272913774202
213	0x40018933862db631	2.1919928057384586
214	0x3fd72e8c0aa7c553	0.36221600571214657
215	0x3fda9e999c1ef599	0.4159301781290537
216	0x3fdb2a4e13853dd0	0.42445709139152843
217	0x3fd92f5ab03e8659	0.39351527415610615
218	0x3ff4e9a5e24946bb	1.3070429648691249
219	0x3ff5c416943b6a26	1.360373095542522
220	0x3fe87d34e8655d1b	0.7652840174659191
221	0x3fc582cff260d2a4	0.16805457434533821
222	0x3fb72016a4b1cfcb	0.09033338089812941
223	0x3fe0a41addb73aab	0.520032341993859
224	0x3fd595d2748943ba	0.33726941471564553
225	0x3fd8b34b22cacfb1	0.38594320676497335
226	0x3fcd8d909405d7b9	0.23088271358181858
227	0x3fc1100005a19315	0.1333007838722088
228	0x3fbed433b5dfc6e4	0.12042544546400397
229	0x3fb75f3cbf74b3bc	0.09129695581641689
230	0x3fbee5f8d44ef8a6	0.12069659407913721
231	0x3fd45b9c9b0dc657	0.3180915369222012
232	0x3fd7ac2e3d89adb0	0.36988407144118707
233	0x3fc61b998a777bfb	0.1727172781092746
234	0x3fb3031f1cb8d90d	0.0742663807985517
235	0x3fd441c96a630909	0.3165153063711306
236	0x3fd473da2a31472c	0.31957105751381465
237	0x3fe2c2a48e1fab3b	0.5862601066449779
238	0x3fe650ada4bb874e	0.6973484246666233
239	0x3ff7fbc590405f24	1.4989677080938657
240	0x3fd8ad9b676d0577	0.3855961332338533
241	0x3fcb7b67ba8722ea	0.21470352752500982
242	0x3fda1718df515fe3	0.4076597386206215
243	0x3fdc5cf3c689267e	0.44317335499054156
244	0x3ff462324be78890	1.2739737477318478
245	0x3ff6bd0b2b57698d	1.4211532300019798
246	0x3fede56e4ac0f6fd	0.9342566928896471
247	0x3fd23a3568dffa67	0.28480277291956785
248	0x3fe5754061bf6222	0.6705629262097015
249	0x3fe9388759c8e12b	0.7881504777533669
250	0x3fb0233f1b755cc9	0.06303781910297625
251	0x3fd43053909e926c	0.3154496109293976
252	0x3fda54a2106aa5f4	0.41141559222395974
253	0x3fd944069e2fbe4d	0.39477696845913074
254	0x3fd7d2cda5f30879	0.3722414131735899
255	0x3fd573f6fcbd3534	0.33520292932083184

group_mean_u_sigma f8 [3000]
0	0x3fd32865e270975b	0.29934069741499564
1	0x3fe20498dbf09b3c	0.5630611701679764
2	0x3fe33f2c181e099a	0.6014614554444961
3	0x3fd024d9ab4a24a3	0.25224916198255637
4	0x3fc5894ca6e939c1	0.16825254583313945
5	0x3fba8421af00f754	0.10357866785576891
6	0x3fba2c68fb500a60	0.10224014411509463
7	0x3fe840a88c578e81	0.7578928700499575
8	0x3fddc370d18c2952	0.4650537535059317
9	0x3fdf0af2c931ad08	0.48504323623519996
10	0x3fb72d1b38628e65	0.09053201796137385
11	0x3fc460b92846cbd9	0.15920175997379607
12	0x3fdbf699aa5e963c	0.4369262851490452
13	0x3ff60ab4ce43aba0	1.3776138360214887
14	0x3fe31985e5d59efb	0.5968656052545777
15	0x3ff176fe89f39406	1.0915513409356676
16	0x3ff1ad66983aeaf2	1.104834170006765
17	0x3fbb27bd805a17d8	0.10607513793556167
18	0x3ff2a52a21613d27	1.1653233817958808
19	0x3ff9e601f2c4654b	1.6186542018025019
20	0x3ff3df1711c6f216	1.2419653601092526
21	0x3fc37f8cfcd4cf1b	0.15233003945615384
22	0x3fe69624e2f0b035	0.705828135721737
23	0x3fe426fa0b7a10d1	0.6297579025417922
24	0x3fe0db3ad596ddd8	0.5267614528337914
25	0x3fe0b77536e47dca	0.5223947593803413
26	0x3fee34ce8969e1e8	0.9439461406573715
27	0x3fdc0d41cabe67b5	0.4383091430587414
28	0x4003b2f41ab8269e	2.462379654640997
29	0x3ff10e818a8ccdc0	1.0660415088758413
30	0x3ff17fa306346f02	1.0936613314033257
31	0x3fe30c9d92a1db9f	0.5952899803077009
32	0x3fd13d9c2e9a53fa	0.2693853812318704
33	0x3fb8f209bef2d663	0.09744320785360965
34	0x3fb6ffe7a1bb5392	0.08984229753998665
35	0x3face3542859a238	0.05642188065104786
36	0x3fb141576823bda0	0.0674032811400509
37	0x3fd2b0d96f606108	0.2920440280590957
38	0x3fb057497aa895bc	0.0638318943461717
39	0x3fbb4ae2136d36db	0.10661137556345628
40	0x3fc1efe6c54d9b52	0.14013371118491108
41	0x3fd0927de2f10fea	0.2589411464907686
42	0x3fbec1354fdf744c	0.12013562393208693
43	0x3fdb051941b58902	0.42218619744211605
44	0x3fd74fb79de6acc8	0.3642405550005603
45	0x3fe9f95efffc0231	0.8116908073134877
46	0x3fe7136ce907dea7	0.7211212684041656
47	0x3fbe9b3ed1e00ddb	0.11955635665804414
48	0x3fd87f71a0ecfdac	0.3827785560169683
49	0x3fd3ba1c1e5e2416	0.3082342430648749
50	0x3fbe1d1b5db8e68a	0.11763163602963736
51	0x3fc9227d072c5721	0.19636500215772748
52	0x3fe7253b9419f12b	0.7232950108150694
53	0x3fe65cfb5f606a9b	0.69885033252952
54	0x3ff05f33fe4214ff	1.0232429439504924
55	0x3fd3dbf49321ef8b	0.31030001037992666
56	0x3ff235813528b7a4	1.1380626751447176
57	0x3fe396c66dd12eb8	0.6121551651826485
58	0x3fdf0072800d4e8a	0.48440229897571696
59	0x3fd085c91b34db34	0.2581656232536489
60	0x3fe3542619161bae	0.6040220727889982
61	0x3fbcf33f61d95b61	0.11308666361706578
62	0x3fa4056c46885907	0.03910387383455043
63	0x3fa1d2b58df1adfe	0.034810708596378234
64	0x3fa1436de6f82fd6	0.033717569775120346
65	0x3fa1436de6f82fd6	0.033717569775120346
66	0x3fa0cdb33b88bb02	0.03281936742529547
67	0x3fa1e5e209411691	0.03495699274985243
68	0x3fc3c77d44dfdad5	0.15452543128022592
69	0x3fd3108477447a42	0.29788314482894773
70	0x3fda54b4c9ec1414	0.4114200565239241
71	0x3fcd62e190a12a1c	0.2295801120947808
72	0x3fd9513bf09220c3	0.3955831384014454
73	0x3ffd6e7cb9d08ce4	1.8394744165787467
74	0x3ff01658be71f93c	1.0054557265535342
75	0x3fea9790352509ee	0.8310013807279668
76	0x3fc92d5e4e4286e8	0.19669703313143505
77	0x3fe4a2e548ee6acd	0.6448847221793926
78	0x3ff5763ee5a8bb46	1.3413685771044626
79	0x3ff10845e2dd947c	1.064519773667853
80	0x3fd3d46697804f95	0.30983891291656934
81	0x3fe15ec5f48256e7	0.5428190017289268
82	0x3fe45c6b4aede7db	0.6362816298926605
83	0x3fd4b1403f34b494	0.32331854031037577
84	0x3fd9ade5c60fda24	0.4012388643454037
85	0x3fc2fdac1cd92c2c	0.14836646469697834
86	0x3fc3705583a19839	0.15186566283517935
87	0x3fbcdc319383c939	0.1127348885673073
88	0x3fab2ddedf2c0f90	0.053084339850129614
89	0x3fc31090bba20836	0.14894303476109066
90	0x3fcfc0fe1ce0f9b1	0.24807716760728973
91	0x3fbb7d4930c5f4e5	0.1073804611277925
92	0x3fd865cce0699a19	0.38121339717182107
93	0x3fcba5351cf0da54	0.215979231959596
94	0x3fe4022002960a72	0.6252594042310433
95	0x3fd1721549b68fc4	0.27258808325336426
96	0x3fe8f1c7901320bf	0.7795141042670578
97	0x3fd4f666797b7b42	0.3275390802718229
98	0x3fb7beffb4c0e16f	0.09275816119123247
99	0x3fc3d8333bfc042c	0.155035404481198
100	0x3fc51dfe3ddf82c1	0.16497781773707312
101	0x3facd7ad71eb873d	0.05633298888802905
102	0x3fd50cd5689fa3df	0.32890830247066377
103	0x3fdfdb1055dfa7c9	0.4977455938920881
104	0x3fc6326ce969a33a	0.1734138622007551
105	0x3fe719a2ac62f347	0.7218793265270528
106	0x3fd60eafa748f6c9	0.34464637123515424
107	0x3ffb0719fcc86b99	1.6892337679225646
108	0x3fe442a5ada666ff	0.6331356422044506
109	0x3ff8921ab06a42ed	1.5356699839796264
110	0x4006021c8065237f	2.7510309248795575
111	0x3fec38a81bcc45da	0.8819160979202778
112	0x3fe21d895160baeb	0.5661055173312354
113	0x3fde384f738aad5a	0.47218691142434965
114	0x3fde875264039902	0.4770093895625821
115	0x3fd0b9500a2d4011	0.26131058687042336
116	0x3fc09181f0d942ad	0.12944053898038047
117	0x3fc2c0e8444894c3	0.14651206335216757
118	0x3fcfb6df03d8394c	0.24776828468061252
119	0x3fd43e7fa556fc98	0.31631461283172646
120	0x3fb1ddb5bc01b3bf	0.06978927459722593
121	0x3fa4b6a4ad3a99bd	0.0404559575520582
122	0x3fc356a5b7fb118d	0.1510817669242325
123	0x3fc4e4f9cccdd834	0.1632377862949298
124	0x3fb24383f9cdbd34	0.07134270523760194
125	0x3fc4a309f56d04e5	0.16122555240330097
126	0x3fcbcd3ac25143f2	0.2172006081405296
127	0x3fdca776d5501d17	0.4477212031492441
128	0x3feec8a634d6bb39	0.9619933158881856
129	0x3fd34e654f16ec91	0.30165989612187
130	0x3fba913ca8e90c4e	0.10377864002025314
131	0x3fbb84e97ebdc86a	0.10749682754775028
132	0x3fbfd0750b02727e	0.12427455443180155
133	0x3fd2211385f5f477	0.2832688148699342
134	0x3fccf163a6aa6bcb	0.22611661565755833
135	0x3fe07f212a2aa8a3	0.5155187438552001
136	0x3fdb239ad12c2c12	0.4240481417370471
137	0x3feb7e28b372204e	0.8591502671051872
138	0x3fc260fb05183708	0.14358461140403045
139	0x3fe5cda1f7c60178	0.6813516463590039
140	0x3fe52bbaf9b5a336	0.661588180269155
141	0x4007e9017019d85e	2.9887722738158535
142	0x3ff86615879fb32e	1.5249228761487745
143	0x3ff6e69839003505	1.4312975145906546
144	0x3ff2b634262f5d7e	1.169483327064739
145	0x3fed83f3b7e75477	0.9223574249141525
146	0x3fd937c046c8c33a	0.3940277758838878
147	0x3ff2d98c6d1b0ee8	1.1781124364796884
148	0x3ff68a9cbc6f0298	1.4088408814133455
149	0x3fec26891b3af1fd	0.8797040492859761
150	0x3fe9b0a9aefb2af0	0.802815286407478
151	0x3ff7b414db1c180c	1.481465202233724
152	0x3fe68a7ed2c95170	0.704406177227197
153	0x3fce7e6e60c6f355	0.23823337293097305
154	0x3fb54065591c516f	0.08301385331680476
155	0x3fb5cd6ce7878f48	0.08516579296661775
156	0x3faa72e9f375fa42	0.051657973260252024
157	0x3fa5eef1f52efad6	0.042838631801250734
158	0x3fd2bfa2912caf64	0.2929464738579013
159	0x3fd487479c7f9a57	0.32075681956340446
160	0x3fb8a727cfbbfe1b	0.09630059072150525
161	0x3faa8684ea61715d	0.05180755005923985
162	0x3fa7ff8aa010a833	0.046871501959984484
163	0x3fc95b5adc9f2186	0.1981004311803753
164	0x3fbbec5263176cf1	0.10907473487116072
165	0x3faad63093351f06	0.052415388078371136
166	0x3fb03254ec597848	0.06326800127269039
167	0x3fada387fbf6c00c	0.05788826895457086
168	0x3fa8177944aa59d6	0.047054090148936176
169	0x3fdd933301ee4af2	0.46210932911451075
170	0x3fd7b37e085e4651	0.37033034150326666
171	0x3fd177993354c1c4	0.27292470944214764
172	0x3fd1aa8c2ef0fc44	0.2760343988811125
173	0x3fda26dcf859fd2c	0.40862201932027875
174	0x3fda82c3f1931180	0.41423128691919686
175	0x3fde45edbe72888a	0.47301810835245617
176	0x3fd742558e09fec5	0.36342371817589153
177	0x3ffb23ae7b92e34d	1.6962113215542616
178	0x4001eeb001a4478b	2.2415466430911173
179	0x3fda7da4b845e700	0.41391866679587963
180	0x3fc50c99421f974e	0.16444698074991
181	0x3fb8cec2633d7df0	0.09690489695412174
182	0x3fbb32990d9beecb	0.10624081213239404
183	0x3fc0b1135b1d176d	0.13040391873272075
184	0x3fd8285aee73018e	0.37746308599528156
185	0x3fed85be62d60227	0.9225761347188993
186	0x3fd7f0bc69d67eac	0.374068358762069
187	0x3fdc30a7708e2013	0.4404696082278871
188	0x3fd17b0f0753892e	0.2731359073205962
189	0x3fc16f8219069be0	0.13621546003307028
190	0x3fc0e865b6911eab	0.1320922032775703
191	0x3fd0393916613032	0.25349261460792427
192	0x3fd52d1cc259c196	0.33087843875457545
193	0x3fb579c9be8e4ee2	0.08388958837741314
194	0x3fd8b8f2fdd792d6	0.38628840245500606
195	0x3fe0e947b8be4c09	0.5284765823620329
196	0x3ff8236f743c2589	1.5086512127330443
197	0x3fef9925dc9439ed	0.9874448116477744
198	0x3fe32bf04a4ff90d	0.5991136027730889
199	0x3fcdafef76efc0f7	0.2319316225762191
200	0x3feff89bb28c3ba7	0.9990976798306875
201	0x3fd8c24e310f6331	0.38685946265245535
202	0x40001e634089b060	2.014837745859083
203	0x40008d7a5d3ed2a6	2.069081047515584
204	0x400154fc632141ff	2.166497015430877
205	0x3fe106ee02f9b887	0.5320959146609007
206	0x3fc484336719b470	0.1602844479961365
207	0x3ff1b091e6522d9a	1.1056078907884967
208	0x3ff5d588ef5c9e99	1.364632544524204
209	0x4001472f8d270582	2.159758665803282
210	0x400427c3f5bf327d	2.519416732690216
211	0x3ffec592d575478f	1.9232357347686706
212	0x3ff8ed2e7d3b77e5	1.5579056636702202
213	0x3fd08a4a6d208ad0	0.2584405961699021
214	0x3fb156f5714d64fa	0.06773313537759754
215	0x3fec616364ca640c	0.886888214928264
216	0x3fe978aa805e5826	0.795979738921919
217	0x3ff02836d6a66283	1.0098179230464275
218	0x3fcedba8afae1c23	0.2410784585774489
219	0x3fc30518ab0a7a01	0.14859302856071113
220	0x3fac1527bf7ceab9	0.05484890186786146
221	0x3faa4b35c3f10466	0.05135505692351998
222	0x3fd070c0561d9ae4	0.25688179406863143
223	0x3fe1c62e8d8dbe9a	0.5554421200485706
224	0x3fd504504d1500e7	0.32838828589957675
225	0x3fc83c47bb68b209	0.18933960581615875
226	0x3fbf17b43042c544	0.12145544222109544
227	0x3fdb3fcd906e06a9	0.4257692251631889
228	0x3fdc1dbbf80447ff	0.43931483478911554
229	0x3fe517171adc077c	0.659068634471836
230	0x3fc73db3ef028ef2	0.18157052202615592
231	0x3fd66e568e3d20a7	0.35048450365548905
232	0x3fc56a4af1041670	0.16730629700048238
233	0x3fdcd5616a3a6d16	0.45052371381616874
234	0x3fee576dadf70690	0.948172416472703
235	0x3fdb0f5e08e52f6d	0.42281294697453725
236	0x3ff4c46f64055fe3	1.297957792956361
237	0x3fca70a834a947bd	0.2065630204329504
238	0x3febb5c63b4629c4	0.8659392507263921
239	0x3fdef072d75b10a1	0.4834258177836635
240	0x3fe3221f7df99fbd	0.5979154072238014
241	0x3fdb40695e00de51	0.425806371498287
242	0x3fe9bcc5993e7478	0.8042934411092935
243	0x3fe1c673d5a83fda	0.5554751561157858
244	0x3fd5a0f1f0834b29	0.3379483078726247
245	0x3fe112043afc9fa7	0.5334492828451304
246	0x3fe3b8c04898e916	0.616302625457396
247	0x3fd74d1fa6ab3d6a	0.36408225322971666
248	0x3fe532f3a164e184	0.6624696876743177
249	0x3ff0676d146847bb	1.0252505108987708
250	0x3feeb69f01167721	0.9597926160092564
251	0x3fcf730eb2e7d4c5	0.24569877372383622
252	0x3fdf1f3b7b016ec4	0.4862812710978057
253	0x3fded62537bacb41	0.48182039682722083
254	0x3fde5e6fb00cf1a7	0.47451393310964324
255	0x3fdef7ac30e215a0	0.48386673711532957
